best_model.pth (torch, 87093 bytes, 14 tensors)

conv1.weight f4 [16, 1, 3, 3]
0	0x3e8b8a95	0.27254167
1	0x3e6dd331	0.23225094
2	0xbe02ff9b	-0.12792818
3	0x3e9768f1	0.2957225
4	0x3d3abd9e	0.04559099
5	0x3dee6991	0.11641229
6	0xbe1e5cb2	-0.15465048
7	0x3e3eeeec	0.18645829
8	0x3ea73020	0.32653904
9	0xbe839cfd	-0.2570571
10	0x3ea08a69	0.313556
11	0x3e1a2aa3	0.15055327
12	0x3e837a25	0.25679126
13	0x3c1e0964	0.009645794
14	0x3dd09ba7	0.10185938
15	0x3d45154f	0.048116025
16	0x3e5dd5bc	0.21663564
17	0xbd2d2355	-0.042270023
18	0xbe32c56a	-0.1745812
19	0xbcbabcac	-0.022795044
20	0xbe48e7ee	-0.19619724
21	0xbce03e3f	-0.027373431
22	0xbe688ba6	-0.22709522
23	0x3e670081	0.22558786
24	0xbe668f38	-0.22515571
25	0xbe12c548	-0.1433307
26	0xbd65dfcb	-0.05612163
27	0xbe9df769	-0.3085282
28	0xbd35c604	-0.044378296
29	0xbecb7282	-0.397358
30	0x3e8b9971	0.27265504
31	0xbe6dbdbc	-0.23216909
32	0x3e512a7b	0.20426361
33	0x3daf22e0	0.08551574
34	0xbd81a9c2	-0.06331207
35	0x3e4e07e7	0.20120202
36	0x3cd398f9	0.025829779
37	0x3e7228e8	0.23648417
38	0x3bec15ff	0.0072047706
39	0xbe024c7e	-0.12724492
40	0x3d5a5703	0.053305637
41	0xbb4179c3	-0.0029522039
42	0x3e003c6b	0.12523048
43	0x3e8854f8	0.26627326
44	0x3e9e54fc	0.30924213
45	0xbd54320b	-0.051805537
46	0x3e63aae3	0.22233157
47	0x3d15d31c	0.036578283
48	0x3e305711	0.17220713
49	0xbe31effa	-0.173767
50	0xbed0ca6c	-0.40779436
51	0xbe38916f	-0.18024229
52	0xbe46dc89	-0.19420065
53	0x3e82aec6	0.25523967
54	0x3e115b6d	0.14195032
55	0x3e1c6381	0.15272333
56	0x3e5aa4fb	0.21351998
57	0xbc863238	-0.016381368
58	0x3e111bf0	0.14170814
59	0xbe45d12a	-0.19318071
60	0xbdcd51fa	-0.100254014
61	0xbe9e42bd	-0.30910292
62	0x3d25844c	0.04040937
63	0xbe27452c	-0.1633498
64	0x3c4cc554	0.012498219
65	0xbe02c0e1	-0.1276889
66	0x3e8c5f5a	0.27416497
67	0xbe2ef9af	-0.17087434
68	0xbe6900b4	-0.22754174
69	0xbe0752e9	-0.13215221
70	0x3ea61f6c	0.32445848
71	0x3e0eb254	0.13935214
72	0x3e8d9a17	0.27656624
73	0xbe87fa85	-0.2655832
74	0xbead5149	-0.33851078
75	0xbebb95f1	-0.36637834
76	0xbe70cff5	-0.2351683
77	0x3de7d5da	0.11320086
78	0x3d9f34b5	0.07773725
79	0x3e908f0f	0.28234145
80	0xbe0656ad	-0.13119002
81	0xbe73d5fb	-0.23812096
82	0x3e35ce1b	0.17754404
83	0xbda6e985	-0.08150009
84	0x3e09991c	0.13437313
85	0xbde7dd15	-0.11321465
86	0x3e5d0420	0.21583605
87	0xbe905eeb	-0.28197417
88	0xbe20f648	-0.15718949
89	0x3e28a615	0.16469605
90	0x3d99a2bf	0.075017445
91	0xbdf30012	-0.11865248
92	0x3de13682	0.10996725
93	0x3e955bc0	0.29171562
94	0xbe51ff16	-0.20507464
95	0xbe3d1b11	-0.18467356
96	0x3eacee08	0.33775353
97	0xbe137fe1	-0.1440425
98	0xbe1789c9	-0.14798655
99	0xbe66d08f	-0.22540496
100	0xbb5c7575	-0.0033639346
101	0x3e604f19	0.21905173
102	0xbe0f6178	-0.14002025
103	0xbe691379	-0.22761334
104	0x3cff31e3	0.031151718
105	0xbce00703	-0.027347093
106	0xbe6c4427	-0.23072873
107	0xbe7682dd	-0.24073358
108	0xbe1c99f2	-0.152931
109	0xbdd8b27e	-0.1058092
110	0x3ecdfd5e	0.40232366
111	0xbd6e98d6	-0.058251224
112	0xbc78d07f	-0.015186428
113	0xbe9f2657	-0.31083938
114	0xbe77abf9	-0.24186696
115	0xbe242ce0	-0.16032743
116	0xbd8633c9	-0.06552846
117	0xbe58673f	-0.21133135
118	0xbdad0ef3	-0.08450117
119	0xbe45b62e	-0.19307777
120	0xbdc0bc11	-0.09410871
121	0xbe5b9b04	-0.21445853
122	0x3d6168eb	0.0550317
123	0xbe9dc1c4	-0.30811894
124	0xbea21e12	-0.31663567
125	0xbe0c8cd6	-0.137256
126	0xbe3cd4f4	-0.1844061
127	0xbea1cda0	-0.31602192
128	0x3e87f4c7	0.26553938
129	0xbe0a5152	-0.13507584
130	0x3e6f30ca	0.23358455
131	0x3ddee2e0	0.10883117
132	0xbe795696	-0.24349436
133	0x3e72b0bc	0.23700231
134	0xbdaab639	-0.083355375
135	0xbdb4e070	-0.088318706
136	0xbe5970ba	-0.21234408
137	0xbe9dc632	-0.30815274
138	0xbdb07c97	-0.086175136
139	0xbe3093ea	-0.17243925
140	0x3e2f6f63	0.17132334
141	0xbebe383d	-0.3715228
142	0x3e99a567	0.30009004
143	0xbdc0fa82	-0.094227806

conv1.bias f4 [16]
0	0x3b09a9f6	0.0021005846
1	0x3c071cd2	0.008246617
2	0x3c02cf39	0.007983976
3	0x3e0ea685	0.1393071
4	0x3d99589c	0.07487604
5	0xbda46c62	-0.08028485
6	0x3e00b662	0.12569574
7	0xbc39b0e6	-0.01133368
8	0x3b92b1f3	0.0044767796
9	0xbd84b961	-0.06480671
10	0x3e0dda14	0.13852721
11	0xbd71952a	-0.058980145
12	0x3c3070b3	0.010769057
13	0xbcc079fa	-0.023495663
14	0x3ceb6716	0.028735679
15	0xbe5005ac	-0.20314664

bn1.weight f4 [16]
0	0x3f7af355	0.98027545
1	0x3f71363c	0.9422338
2	0x3f8349d0	1.0256901
3	0x3f805245	1.0025107
4	0x3f709c30	0.93988323
5	0x3f8dce5f	1.1078604
6	0x3f7f17f8	0.9964595
7	0x3f7d131a	0.9885727
8	0x3f75638e	0.95855033
9	0x3f7f757f	0.9978866
10	0x3f814be2	1.0101283
11	0x3f802176	1.0010211
12	0x3f8bc656	1.0919902
13	0x3f755235	0.9582856
14	0x3f80de3f	1.0067824
15	0x3f836dd2	1.026789

bn1.bias f4 [16]
0	0xbd960aa8	-0.07326251
1	0xbde110ce	-0.10989533
2	0xbc93a065	-0.018020818
3	0xbe277575	-0.163534
4	0xbe20e321	-0.15711643
5	0xbd4d2867	-0.05008736
6	0xbd2806c0	-0.041022062
7	0xbd462156	-0.048371635
8	0xbd2e5ed9	-0.042570923
9	0xbd0c2a2f	-0.034219917
10	0xbe096d49	-0.13420595
11	0xbd6211e5	-0.055192847
12	0xbe0ab124	-0.13544136
13	0xbd1348d1	-0.035958115
14	0xb6111400	-2.1618325e-06
15	0xbcfa6151	-0.030563982

bn1.running_mean f4 [16]
0	0x3d778346	0.060427926
1	0x3d3a4ef0	0.045485437
2	0xbd07f172	-0.033189245
3	0x3e07db8c	0.13267344
4	0x3dff083a	0.12452741
5	0xbdc5736c	-0.096411556
6	0x3e0aff4e	0.13573954
7	0xbc2741ff	-0.010208606
8	0xbc8abee4	-0.016936727
9	0xbd96d58e	-0.07364951
10	0x3e1665d1	0.14687277
11	0xbdc9d904	-0.098558456
12	0xbb397ace	-0.0028301957
13	0xbdc72c60	-0.09725261
14	0x3c8287fc	0.015933983
15	0xbe79c79d	-0.24392553

bn1.running_var f4 [16]
0	0x3f74c683	0.95615405
1	0x3f073713	0.5281841
2	0x3edcb376	0.43105668
3	0x3e5ff113	0.21869306
4	0x3f0cdc04	0.5502322
5	0x3e30f797	0.17281948
6	0x3e1da68f	0.15395568
7	0x3dbb9d08	0.09160811
8	0x3ec6c019	0.38818434
9	0x3de787c7	0.11305194
10	0x3e4d1275	0.20026572
11	0x3f036b7e	0.51335895
12	0x3ec998ad	0.39374295
13	0x3fbaf514	1.4606042
14	0x3e48f800	0.19625854
15	0x3f06d279	0.52664906

conv2.weight f4 [32, 16, 3, 3]
0	0x3d97b694	0.07407871
1	0x3d70d017	0.0587922
2	0x3d780179	0.06054828
3	0xbd3c0c37	-0.045910086
4	0x3d2a8abd	0.041636217
5	0xbd099598	-0.03358993
6	0x3c313908	0.01081682
7	0x3df32836	0.11872904
8	0x3cba3a4b	0.022732874
9	0xbd24c44d	-0.04022627
10	0xbcce94e7	-0.025217487
11	0x3c9d5a09	0.019207971
12	0x3cc9fa28	0.024655417
13	0xbd6cbdcb	-0.05779819
14	0xbda3d979	-0.08000464
15	0xbd51256f	-0.05106109
16	0xbd4d86f6	-0.050177537
17	0xbcbd1074	-0.023079135
18	0x3d8f34d5	0.06992499
19	0xbd3e20e4	-0.046418086
20	0x3d2ac86c	0.041695043
21	0xbcb17557	-0.021662397
22	0x3c96e04f	0.018417506
23	0xbcd21d0a	-0.025648613
24	0x3cb8a8fb	0.022541514
25	0x3d3d5fa0	0.046233773
26	0x3d96f23b	0.073704205
27	0xbae3ccf6	-0.0017379809
28	0x3be972de	0.007124289
29	0x3d68371d	0.056693185
30	0x3d631e87	0.055449035
31	0x3d32f031	0.043686096
32	0x3d914a45	0.07094244
33	0x3deb60bc	0.1149306
34	0x3d299f1d	0.041411508
35	0xbcade96c	-0.021229468
36	0x3be01adb	0.006839139
37	0xbc7d29e3	-0.015451881
38	0x3d01b2e9	0.031664763
39	0x3c5ccb8f	0.0134762665
40	0xbdb94171	-0.09045685
41	0xbdb17762	-0.086653486
42	0x3d3e4ceb	0.046460073
43	0x3d0e7be0	0.034786105
44	0xbd2562cc	-0.040377423
45	0xbda6723a	-0.08127256
46	0xbd9bf24f	-0.07614576
47	0xbdb48ac9	-0.08815534
48	0xbd8b6db0	-0.068080306
49	0xbda54ce2	-0.08071305
50	0x3c6fea69	0.01464329
51	0x3d647879	0.055778954
52	0xbdb9040e	-0.090339765
53	0xbdbd2714	-0.09235969
54	0x3c8ad600	0.016947746
55	0x3df9a537	0.12189715
56	0x3d6de2fc	0.058077797
57	0x3b6aa9e5	0.0035806831
58	0x3cb19b7a	0.021680582
59	0xbc2834f4	-0.010266531
60	0xbcb0a5ff	-0.021563528
61	0x3d0ec254	0.034853294
62	0xbdc3facc	-0.0956932
63	0xbbf35a65	-0.0074265474
64	0xbd53a296	-0.051668726
65	0x3d2478eb	0.04015438
66	0x3df32056	0.11871402
67	0x3dc5c62e	0.096569404
68	0xbd146080	-0.036224842
69	0xbaa39056	-0.0012478929
70	0x3cac8a99	0.021062182
71	0x3d8f2af0	0.069906116
72	0x3d14d9dd	0.036340583
73	0x3daa784d	0.08323727
74	0x3d8151a2	0.06314398
75	0x3d30095e	0.042977683
76	0x3c51846f	0.012787922
77	0xbd7400fb	-0.059571248
78	0xbd52ec59	-0.05149493
79	0xbd3ca2c5	-0.046053667
80	0x3c838e79	0.016059147
81	0xbd6b0e35	-0.057386596
82	0x3c045567	0.008077002
83	0x3b0ef46f	0.0021813174
84	0xbd522e55	-0.051313717
85	0xbd248ef0	-0.04017538
86	0xbd8622f6	-0.06549637
87	0x3d9c71cd	0.07638893
88	0x3cbc6c88	0.02300097
89	0xbbec8c64	-0.0072188843
90	0xbd9fc3b5	-0.07801
91	0xbddafcdf	-0.106927626
92	0xbd6a131c	-0.05714713
93	0xbd2bdacc	-0.041956708
94	0x3cc4c1b2	0.024018142
95	0xbc619440	-0.013768256
96	0x3d3096b0	0.043112457
97	0x3d12f212	0.035875387
98	0x3dec6e19	0.11544437
99	0x3d76d386	0.06026032
100	0x3dd7a3c0	0.1052928
101	0xbca708ac	-0.020389877
102	0x3d6cbe99	0.057798956
103	0x3d62db09	0.05538467
104	0x3dc95362	0.09830357
105	0x3d87bd2f	0.06627881
106	0x3cceed7d	0.025259728
107	0x3d8f847e	0.07007693
108	0x3c9aa41d	0.018877083
109	0x39a2a9b4	0.00031025487
110	0x3db9d605	0.09074024
111	0xbd097c37	-0.033565726
112	0x3e1085d5	0.14113553
113	0x3e2b78f7	0.16745363
114	0x3db56eaa	0.08858998
115	0x3da1d6b5	0.0790228
116	0xbbf5a0cc	-0.007495975
117	0x3c3e79ee	0.01162575
118	0x3d4156ab	0.047201794
119	0xbdbb1abc	-0.091359586
120	0xbd6b4ffe	-0.057449333
121	0xbd40afa2	-0.047042497
122	0xbaffb28b	-0.0019508166
123	0xbd2b6dbc	-0.041852698
124	0xbcec6fcf	-0.028861908
125	0x3ca5feb1	0.020263048
126	0xbda6767d	-0.081280686
127	0x3d8cf5b3	0.06882801
128	0x3da5b957	0.080919914
129	0xbdce7c82	-0.10082342
130	0xbdb0a774	-0.08625689
131	0xbd0184e5	-0.03162088
132	0xbd8dd1f0	-0.06924808
133	0xbdbef53b	-0.09324118
134	0xbd6fee35	-0.05857678
135	0xbd7a8a09	-0.061166797
136	0xbda83ede	-0.08215116
137	0xbc9d2dbc	-0.019186847
138	0xbd858a0e	-0.065204725
139	0xbd0ca291	-0.034334723
140	0x3b03c9f7	0.0020109394
141	0xbce68276	-0.02813838
142	0xbca9c43f	-0.02072346
143	0xbcbfeff3	-0.023429846
144	0xbd4f14ad	-0.050556827
145	0x3d8c6af3	0.068563364
146	0xbda5e6d1	-0.08100665
147	0x3c502acf	0.012705519
148	0xbcd1b33a	-0.025598157
149	0xbcc27353	-0.023736631
150	0x3d8f8caf	0.07009255
151	0x3ca57443	0.02019704
152	0xbdea28d5	-0.11433569
153	0x3d9dfc48	0.077141345
154	0x3dd2295f	0.10261797
155	0xba9da19d	-0.0012026314
156	0x3dae4534	0.08509293
157	0x3de4edfa	0.11178203
158	0xbd95a882	-0.07307531
159	0x3d8c0289	0.06836421
160	0xbd7466e4	-0.059668437
161	0xbd74d211	-0.059770647
162	0x3e088d4c	0.1333515
163	0x3db0fc78	0.086419046
164	0xbcc37bc5	-0.023862729
165	0xb58e7000	-1.0612421e-06
166	0xbcd3d518	-0.025858447
167	0xbcafad83	-0.021445042
168	0xbd32c763	-0.04364718
169	0x3d0d3dda	0.034482814
170	0x3dd27fec	0.102783054
171	0xb9b9f552	-0.00035468728
172	0xbcd3ff5b	-0.025878599
173	0xbdaf6b10	-0.085653424
174	0xbcccbe99	-0.024993228
175	0xbd9b0e0f	-0.07571041
176	0xbd68c20d	-0.056825686
177	0x3d603a4d	0.0547431
178	0xbd2fc06c	-0.042908117
179	0xbcdbb6eb	-0.02682062
180	0x3cf2b04a	0.029625077
181	0x3c43c80c	0.01194955
182	0xbd919004	-0.07107547
183	0xbd35d442	-0.044391878
184	0xbd288531	-0.041142646
185	0xbdb48c30	-0.08815801
186	0x3de9d83e	0.11418198
187	0xbd188f4f	-0.037246045
188	0xbda65b42	-0.08122875
189	0xbd15be60	-0.03655851
190	0xbd8b2196	-0.067935154
191	0x3cff3a2e	0.031155672
192	0x3d6a8b40	0.057261705
193	0x3d8c4584	0.068491966
194	0xbda2313a	-0.079195455
195	0x3da97aa3	0.08275344
196	0x3d80ab59	0.06282682
197	0xbd92c41e	-0.07166313
198	0xbdb81739	-0.08988804
199	0x3d7dfb95	0.062007505
200	0xbd171c28	-0.036892086
201	0xbd6d2493	-0.057896208
202	0xbd235d62	-0.03988398
203	0xbc8b2917	-0.016987367
204	0x3d08463e	0.033270113
205	0xb9775d20	-0.00023590447
206	0xbd691b2f	-0.05691069
207	0xbdca1c38	-0.098686635
208	0xbd60a65c	-0.054846153
209	0x3b380652	0.002807994
210	0xbc9ed46b	-0.019388398
211	0xbc100a51	-0.008791522
212	0xbceb5dcd	-0.028731251
213	0xbd9bca29	-0.07606918
214	0xbdccf8fb	-0.10008427
215	0xbd6bb883	-0.05754901
216	0xbdc11ee0	-0.09429717
217	0x3d1a7b51	0.03771526
218	0x3dca3cf6	0.098749086
219	0xbe096ae6	-0.13419685
220	0x3ce5cc6d	0.02805158
221	0x3d51c85e	0.051216476
222	0x3d8e18ef	0.069383495
223	0x3de0ed67	0.10982781
224	0x3cda2771	0.026630135
225	0x3df95d64	0.12176016
226	0x3d67cbd0	0.056590855
227	0xbcffacbe	-0.0312103
228	0x3dbd1f22	0.09234454
229	0x3db48f63	0.08816411
230	0xbcefeb60	-0.02928704
231	0xbd8b34d1	-0.06797183
232	0x3dab4e27	0.08364516
233	0x3d28c1a8	0.04120031
234	0xbc324f92	-0.010883229
235	0x3d3407c5	0.043952722
236	0x3d99f88c	0.0751811
237	0x3d366892	0.04453332
238	0x3d94eecc	0.072721094
239	0x3d9ed1c0	0.077548504
240	0x3d859e96	0.065243885
241	0x3d906319	0.070501514
242	0x3cc663f8	0.02421759
243	0xbbf5ecb8	-0.0075050257
244	0x3bb3a4da	0.0054822983
245	0xbd8270d2	-0.06369175
246	0xbd1f8b6c	-0.038951322
247	0xbce13e15	-0.027495423
248	0xbbaed44f	-0.0053353678
249	0x3c2cfae4	0.010557864
250	0xbc58ff4f	-0.013244464
251	0x3b4282ed	0.0029680089
252	0xbc30e05c	-0.010795679
253	0x3cbe7870	0.023250788
254	0x3af15a6e	0.0018413791
255	0xbd0d59eb	-0.03450958

conv2.bias f4 [32]
0	0xbac82ec1	-0.0015272723
1	0xbb171492	-0.0023053032
2	0xba973677	-0.0011536618
3	0xbb9b76be	-0.00474438
4	0x3991851b	0.00027755726
5	0xbb994dbb	-0.0046784556
6	0x3adb7aa0	0.0016744919
7	0xbba823fe	-0.0051312437
8	0xbc3adebb	-0.011405642
9	0xbb2f0937	-0.0026708373
10	0x3ba184cf	0.004929162
11	0x3b034f6d	0.0020036355
12	0x38e930c5	0.0001111939
13	0x3a873f2b	0.0010318508
14	0x3a898898	0.0010492979
15	0x3b834b68	0.004006792
16	0x3bbdc0b1	0.005790793
17	0x3b928308	0.0044711865
18	0xbc04b6be	-0.00810021
19	0x3a10e99e	0.0005527976
20	0xba0da81a	-0.0005403772
21	0xba89fff9	-0.0010528556
22	0xbaea4e26	-0.0017876073
23	0xbb1164b7	-0.0022185275
24	0x3b45b381	0.0030166807
25	0x3a96ba01	0.0011499525
26	0x3a352cb4	0.00069112633
27	0x3b3f06a4	0.0029148245
28	0x397ddaf2	0.00024209524
29	0x3bbaa060	0.0056953877
30	0xba2c2884	-0.00065673166
31	0xbb95411b	-0.0045548803

bn2.weight f4 [32]
0	0x3f913d94	1.1346917
1	0x3f8d34ab	1.1031698
2	0x3f89de7c	1.0771022
3	0x3f8677c4	1.05053
4	0x3f897553	1.073893
5	0x3f832c7e	1.0247953
6	0x3f749e47	0.9555401
7	0x3f848cd1	1.0355474
8	0x3f9062bc	1.1280131
9	0x3f8023d2	1.0010931
10	0x3f8e6acb	1.1126341
11	0x3f81eb57	1.0149945
12	0x3f805afd	1.0027767
13	0x3f81a89a	1.0129578
14	0x3f8e9e2b	1.1142019
15	0x3f889d11	1.0672933
16	0x3f8b456b	1.088056
17	0x3f886d9a	1.0658448
18	0x3f91c55f	1.1388358
19	0x3f848999	1.0354491
20	0x3f8737f2	1.0563948
21	0x3f7cc7cf	0.98742384
22	0x3f89fb20	1.0779762
23	0x3f749dd3	0.9555332
24	0x3f850dd1	1.0394841
25	0x3f81cf31	1.0141355
26	0x3f832a60	1.0247307
27	0x3f7fdeec	0.99949527
28	0x3f81aedf	1.0131491
29	0x3f8f32a3	1.1187328
30	0x3f86f8c4	1.0544667
31	0x3f819102	1.0122378

bn2.bias f4 [32]
0	0xbd652691	-0.055944983
1	0xbdbb0a1e	-0.09132789
2	0xbd3b5517	-0.045735445
3	0x3c5ba770	0.013406619
4	0xbdba2834	-0.090896994
5	0xbca57d1f	-0.020201264
6	0xbe00f333	-0.12592773
7	0xbdb60fa6	-0.088897035
8	0x3c881fdc	0.016616754
9	0xbdb36b06	-0.087606475
10	0xbd9ad373	-0.07559862
11	0xbe0bce10	-0.13652825
12	0xbdfcb5e1	-0.12339378
13	0xbd82d440	-0.0638814
14	0xbcecfcbb	-0.028929105
15	0xbd3a0239	-0.045412276
16	0xbc7667bf	-0.015039383
17	0xbcf2c46f	-0.029634682
18	0xbd71cb91	-0.059032027
19	0xbdf0ff17	-0.117674045
20	0xbd85f676	-0.06541149
21	0xbdb8ae1f	-0.09017586
22	0xbd977b2f	-0.07396542
23	0xbe1e2e4a	-0.15447345
24	0xbd5be6cf	-0.053686913
25	0xbdee628b	-0.11639889
26	0xbdf2a1dc	-0.118472785
27	0xbdc309b2	-0.095233336
28	0xbda6742f	-0.08127629
29	0xbca8dce4	-0.020613141
30	0x3c3d67c4	0.011560384
31	0xbd6b2f96	-0.05741843

bn2.running_mean f4 [32]
0	0x3de39465	0.111122884
1	0x3e4d6c58	0.20060861
2	0x3ee247a4	0.44195282
3	0x3ec7ddaa	0.39036304
4	0xbd377c00	-0.04479599
5	0x3e6378e0	0.22214079
6	0x3d947179	0.07248206
7	0xbe494dc5	-0.19658573
8	0x3ef9a5fc	0.4875945
9	0xbf5d99a2	-0.8656255
10	0x3d2a3342	0.04155279
11	0xbe10b0a3	-0.14129882
12	0xbedbc91a	-0.42926866
13	0x3e21c118	0.15796316
14	0x3c14f93b	0.009092624
15	0x3ee15ac9	0.44014576
16	0xbe0443b5	-0.12916453
17	0x3e4c42aa	0.19947305
18	0x3e34d0dd	0.176578
19	0xbb8755a6	-0.004130083
20	0xbdb5d1d4	-0.08877912
21	0x3e54dded	0.20787783
22	0xbe3abe85	-0.1823674
23	0xbee5f1bc	-0.4491099
24	0x3d0f55fb	0.034994107
25	0xbf0576e6	-0.5213455
26	0xbf0603ea	-0.5234972
27	0xbe534951	-0.20633437
28	0xbf2b3812	-0.6688243
29	0xbe02e709	-0.12783445
30	0xbd8e2ce4	-0.06942156
31	0xbe881ed2	-0.26586014

bn2.running_var f4 [32]
0	0x3e8323e5	0.25613323
1	0x3f2ce568	0.67537546
2	0x3ed92884	0.42413723
3	0x3f54b626	0.83090436
4	0x3ebbbe5e	0.36668676
5	0x3f2d122b	0.6760585
6	0x3e80a7d1	0.25128034
7	0x3f124d1f	0.5714893
8	0x3f2b6434	0.6694977
9	0x3f3a2267	0.72708744
10	0x3ea2f27c	0.31825626
11	0x3f60bd1c	0.8778856
12	0x3eae4639	0.3403795
13	0x3eec77b8	0.46185088
14	0x3ef9e4b2	0.48807293
15	0x3f1a2cf4	0.60224843
16	0x3e74d160	0.23907995
17	0x3f3606ce	0.71104133
18	0x3f0b56c4	0.5442927
19	0x3f064e26	0.52462995
20	0x3ec8f775	0.39251295
21	0x3e8e906c	0.2784456
22	0x3f0ea1f3	0.55715865
23	0x3ecd52c1	0.401022
24	0x3f464a77	0.77457374
25	0x3e84ca5e	0.25935644
26	0x3ee8461c	0.4536599
27	0x3f02b588	0.51058245
28	0x3efabc61	0.48971847
29	0x3ecd3619	0.40080336
30	0x3f5717ac	0.84020495
31	0x3e94ed49	0.29087284

fc.weight f4 [10, 1568]
0	0xbce232f5	-0.027612189
1	0xbc29f7f1	-0.010374055
2	0xb94db8f8	-0.0001961923
3	0xbc9bfbfa	-0.01904105
4	0xbb2d1f93	-0.0026416525
5	0xbbb47def	-0.0055081765
6	0xbc0dce69	-0.008655169
7	0xba93f5fb	-0.0011288518
8	0xbd717267	-0.058946993
9	0x3c03214b	0.008003543
10	0x3c965d1d	0.018354947
11	0x3ced717d	0.02898478
12	0xbbcd8218	-0.006271612
13	0x3d2ed0e4	0.042679682
14	0x3c9ee8ca	0.019398112
15	0xbd5ab717	-0.053397264
16	0xbd1635c1	-0.036672357
17	0x3c61fe7e	0.013793586
18	0x3d56ea12	0.05246932
19	0x3bfbc9f0	0.007683985
20	0xbca94cac	-0.020666443
21	0xbcaf8b0e	-0.021428611
22	0xbd80bb72	-0.06285752
23	0xbd7afd9d	-0.06127702
24	0xbc7635c8	-0.015027471
25	0x3b40ac70	0.0029399656
26	0xbd5e8df4	-0.054334596
27	0xbd74ee8d	-0.059797812
28	0x3bf55d5f	0.0074879373
29	0xbd9de3b5	-0.07709447
30	0xbd96bb7c	-0.073599786
31	0xbd51a21c	-0.05117999
32	0xbdae2f1c	-0.08505079
33	0xbd76b3e8	-0.060230166
34	0xbd170827	-0.03687301
35	0xba50f638	-0.000797126
36	0x3baa6552	0.0052000666
37	0xbc2e00f9	-0.010620349
38	0xbca64053	-0.020294344
39	0xbd349f61	-0.044097308
40	0xbc5dd162	-0.01353869
41	0xbd32ef63	-0.04368533
42	0x3c993cb3	0.018705701
43	0x3c42b772	0.011884557
44	0x3d3cd089	0.046097312
45	0x3c3f800a	0.011688242
46	0xbd4e26f4	-0.050330117
47	0xbbbe41c9	-0.005806182
48	0xbd55b809	-0.052177463
49	0x3a480774	0.0007630505
50	0x3c09f4da	0.008420194
51	0xbccc7dcf	-0.024962334
52	0xbc503f2f	-0.012710377
53	0xbbb66c5a	-0.0055671157
54	0x3ccedf77	0.02525304
55	0x3cecb724	0.028895922
56	0xbbcc2ef2	-0.0062311823
57	0xbc8ba196	-0.017044824
58	0xbd31f822	-0.04344953
59	0x3a50e782	0.00079690677
60	0xbc4b7689	-0.012418398
61	0x3bc65e2e	0.0060537076
62	0x3c9418ad	0.018078173
63	0xbbe6eacc	-0.007047033
64	0x3d8087d4	0.06275907
65	0x3d28afc6	0.041183256
66	0x3d3392d8	0.043841213
67	0xbd310930	-0.043221653
68	0xba9be280	-0.0011893064
69	0x3d31142e	0.043232135
70	0x3c144fc2	0.009052219
71	0x3ddde3ab	0.1083444
72	0x3d7fbd5d	0.06243645
73	0x3d2e3117	0.042527284
74	0xbcbea9a0	-0.023274243
75	0x3b91f855	0.0044546523
76	0x3cca445c	0.0246908
77	0x3ab924fd	0.0014125403
78	0x3d94ac22	0.07259394
79	0x3d4fb5d8	0.05071053
80	0x3d1b890d	0.0379725
81	0x3d1741c9	0.036927972
82	0x3c123367	0.008923388
83	0x3c347b9a	0.011015797
84	0xbd0bafbf	-0.03410315
85	0xbd04c287	-0.03241208
86	0xbd939dcd	-0.072078325
87	0xbd1d5e9b	-0.0384203
88	0x3ca8f8fe	0.020626541
89	0xbc40b304	-0.011761431
90	0xbc72df2f	-0.014823719
91	0xbc0d6457	-0.00862988
92	0xbd1c94a3	-0.03822769
93	0xbd66d251	-0.056352917
94	0xbd2b3adb	-0.041804176
95	0xbd766078	-0.060150594
96	0xbd00562b	-0.031332176
97	0xbbb22ac6	-0.005437228
98	0x3c6d1c1b	0.014472033
99	0xbc4abccb	-0.012374113
100	0xbb8df98f	-0.004332728
101	0xbcc57eb3	-0.024108266
102	0xbca1ca8e	-0.019749906
103	0x3ced2a39	0.028950797
104	0x3c77003f	0.015075742
105	0x3be5c070	0.0070114657
106	0x3cfae2b2	0.030625675
107	0xbc3ccc3c	-0.011523303
108	0x3cba11e7	0.022713615
109	0xbcaba212	-0.020951305
110	0xbcc03945	-0.023464808
111	0x3c9f4fdc	0.01944726
112	0x3c4b1d76	0.012397161
113	0xbc87bcf2	-0.016569588
114	0xbd387701	-0.045035366
115	0xbdae5cdf	-0.085138075
116	0xbde84662	-0.113415495
117	0xbd97e323	-0.0741637
118	0xbcc60f17	-0.024177117
119	0xbb9833bd	-0.0046448396
120	0xbd81de1d	-0.06341193
121	0xbd21b27f	-0.039476868
122	0xbccb960e	-0.024851825
123	0xbc10b01e	-0.008831052
124	0xbcd1ede3	-0.025626129
125	0xbd1e1239	-0.038591597
126	0xbd495256	-0.049150787
127	0xbd8dcbef	-0.06923663
128	0xbcd3260b	-0.025774976
129	0xbd58ebe0	-0.052959323
130	0x3c26b365	0.010174607
131	0x3c8df649	0.017329352
132	0xbc86f7ca	-0.016475577
133	0x3b1081be	0.0022049989
134	0xbca1d5c3	-0.01975525
135	0xbc46985c	-0.012121286
136	0x3d122c58	0.03568682
137	0x3da3165d	0.0796325
138	0x3abf9425	0.0014616294
139	0xbc869475	-0.016428212
140	0x39b362d6	0.0003421518
141	0xbc2a0dc4	-0.010379259
142	0x3bd06b08	0.0063604154
143	0x3c2f8e98	0.010715149
144	0x3c93d5f7	0.018046362
145	0xbd05ba81	-0.032648567
146	0xbcbd76fd	-0.023128027
147	0xbc78a54e	-0.01517613
148	0xbc8a3b47	-0.016873969
149	0xbb1147b2	-0.0022167978
150	0x3baa312e	0.005193851
151	0x3c9ada4c	0.01890292
152	0xbd0ff27f	-0.03514337
153	0x3bdb6ce4	0.0066963304
154	0xbbb78407	-0.0056004557
155	0xbbb98262	-0.005661295
156	0xbc00ea3f	-0.007868349
157	0xbb6c7168	-0.0036078338
158	0xbd3015a1	-0.042989377
159	0xbd4bc8b7	-0.049751963
160	0xbcb8bdce	-0.022551443
161	0x3c00f493	0.007870811
162	0x39dc8eb4	0.00042067992
163	0xb993e06c	-0.00028205232
164	0x3cdfa4ca	0.027300257
165	0xbdd44bb1	-0.103659995
166	0xbd9ac0a0	-0.075562716
167	0xbc43b443	-0.011944833
168	0x3c3157a6	0.01082412
169	0xbcb7acb3	-0.022421217
170	0xbc77f7c8	-0.015134759
171	0x3ccb7888	0.024837747
172	0xbb4137a9	-0.002948264
173	0xbce22111	-0.027603658
174	0xbd531f89	-0.051543746
175	0x3c428159	0.011871659
176	0x390dd1a6	0.00013524908
177	0xbcfc85d0	-0.030825526
178	0xbc4fe1d5	-0.01268812
179	0x3d311192	0.043229647
180	0x3bcc1406	0.006227973
181	0x3c8f7545	0.017511973
182	0xbd1629f9	-0.036661122
183	0xbd7ebc5a	-0.062191345
184	0xbdb06e3e	-0.08614777
185	0xbd37708a	-0.04478506
186	0x3cc32e76	0.023825865
187	0xbcb47eb4	-0.022033073
188	0x3c7108b1	0.014711545
189	0xbd5afc7f	-0.053463455
190	0xbd73d3e3	-0.059528243
191	0xbd98c40b	-0.07459267
192	0xbd61237b	-0.054965477
193	0xbc3aec59	-0.011408889
194	0x3b7ca7a0	0.003855206
195	0xbbad3c4c	-0.005286729
196	0xbc948e25	-0.018134186
197	0x3c61249e	0.01374164
198	0xba396651	-0.0007072436
199	0xbb706d06	-0.0036686077
200	0x3d2421e6	0.04007139
201	0xbc1339b6	-0.008985927
202	0x3ca7d5fe	0.020487782
203	0xbc866b19	-0.01640849
204	0xbb0aceac	-0.0021180315
205	0xbd2b78ed	-0.04186337
206	0x3a7fa2b3	0.0009751722
207	0x3c9e5a5b	0.019330194
208	0xbc77cdce	-0.015124751
209	0xbd009b76	-0.03139826
210	0x3d175c5c	0.036953315
211	0xbba8be11	-0.005149611
212	0xbcce461b	-0.025179913
213	0xbc546c4c	-0.012965273
214	0xbc9660ae	-0.018356647
215	0x3d1a7d4f	0.03771716
216	0x3c8d83e5	0.017274806
217	0xbb948338	-0.004532244
218	0x3cf50eb9	0.029914247
219	0x3d0c9f39	0.034331534
220	0x3cbcc056	0.023040932
221	0x3c8ebe62	0.017424766
222	0x3b9a15e2	0.0047023157
223	0x3da1a1ff	0.078922264
224	0x3ca354d3	0.019937908
225	0x3d63780a	0.0555344
226	0x3d8cdfac	0.068785995
227	0xba8e659a	-0.001086402
228	0x3d461271	0.04835743
229	0x3ce06b48	0.027394906
230	0x3db6172b	0.08891138
231	0x3816b2dc	3.5929363e-05
232	0x3d27b9b9	0.040948603
233	0xbb13d534	-0.00225575
234	0xbd30deb1	-0.043181125
235	0x3d01705c	0.031601295
236	0xbc5372b4	-0.012905765
237	0x3d0e1b23	0.03469385
238	0xbd0cb0b9	-0.034348223
239	0xbd0c248a	-0.034214534
240	0xbd955451	-0.07291473
241	0xbd52b0dd	-0.0514382
242	0xbd8956e5	-0.06706027
243	0xbccc7aca	-0.024960894
244	0x3bb0471f	0.005379572
245	0x3d2e8a66	0.042612456
246	0x3b3adb2d	0.0028511987
247	0xbc7d8bd8	-0.015475236
248	0x3ca77370	0.020440787
249	0x3a122b2b	0.00055758905
250	0x3c184692	0.009294169
251	0xbb80c9ca	-0.003930305
252	0xbaa725ec	-0.001275239
253	0xbcb6c7e6	-0.022312116
254	0xbcbf2016	-0.02333073
255	0x3b26e15a	0.002546391

fc.bias f4 [10]
0	0x3c3b5ba4	0.011435423
1	0x3cca3202	0.024682049
2	0x3c617be1	0.013762445
3	0x3a7eee39	0.0009724829
4	0xbaab9d36	-0.0013093117
5	0xbc9428e2	-0.0180859
6	0xbbf677f1	-0.0075216223
7	0x3cc09baf	0.023511736
8	0xbcec9bf8	-0.028882965
9	0x3afc71d5	0.0019259999
