mnist_model.pth (torch, 41269 bytes, 14 tensors)

conv1.weight f4 [8, 1, 3, 3]
0	0x3eff41a0	0.49854755
1	0x3f20af33	0.6276733
2	0xbf1329cb	-0.57485646
3	0x3ca7b544	0.020472176
4	0x3f110be9	0.566588
5	0xbddfa3f3	-0.10919943
6	0xbf704c5c	-0.93866515
7	0x3eb5bf99	0.3549774
8	0x3edc1d02	0.4299088
9	0xbf57c951	-0.8429156
10	0xbd034570	-0.032048643
11	0x3eff6bf1	0.4988704
12	0xba919d2e	-0.0011109465
13	0x3e63e5ff	0.22255705
14	0x3f0b06a9	0.5430704
15	0xbd241105	-0.040055294
16	0x3e03f923	0.12888007
17	0xbd543a83	-0.051813614
18	0xbef67bb5	-0.48141256
19	0xbec83a41	-0.39106944
20	0xbcb7de5c	-0.022444896
21	0xbea44968	-0.32087255
22	0xbe942c93	-0.28940257
23	0x3f27e28f	0.65580076
24	0xbf2bcbd1	-0.67107874
25	0xbe563c68	-0.2092148
26	0x3f175b2c	0.5912349
27	0xbd17e62c	-0.037084743
28	0xbf2ad54c	-0.66731715
29	0xbf93fbf2	-1.1561263
30	0x3e2daa4d	0.16959496
31	0xbe01d6d4	-0.12679607
32	0x3f267f23	0.65037745
33	0x3e6e1f95	0.23254235
34	0x3eff9e3a	0.49925405
35	0x3f2906a3	0.6602575
36	0xbed103e9	-0.40823296
37	0x3ee1826f	0.44044825
38	0x3e8c02ee	0.27345985
39	0xbd840f43	-0.064482234
40	0x3f11853a	0.5684391
41	0xbe4dfce8	-0.20116007
42	0x3e33f0f8	0.17572391
43	0x3ec88080	0.39160538
44	0xbe5bb628	-0.21456206
45	0x3f364ff0	0.71215725
46	0x3f8291a9	1.0200702
47	0x3f83967a	1.0280297
48	0xbf11301d	-0.5671404
49	0x3d31e618	0.043432325
50	0xbf7a61f1	-0.97805697
51	0xbf8b3ad6	-1.087733
52	0xbf55e2fe	-0.8354949
53	0xbeefc3bd	-0.46829024
54	0xbe945fce	-0.28979343
55	0x3f3de264	0.7417357
56	0x3e183b26	0.14866313
57	0x3f1cded3	0.612775
58	0x3f1f07bb	0.6212117
59	0xbf529dcf	-0.82272047
60	0x3eca53c3	0.3951703
61	0xbeb70eab	-0.35753378
62	0xbeff8a34	-0.49910128
63	0xbc4dfa7e	-0.012571929
64	0xbf72f41d	-0.9490374
65	0xbf4d74c5	-0.802563
66	0x3f3c4163	0.7353727
67	0xbdbb4bcf	-0.09145319
68	0xbf2d5dab	-0.6772105
69	0x3ef9c06a	0.48779613
70	0x3f8c9dae	1.098562
71	0x3e9f8fb1	0.31164315

conv1.bias f4 [8]
0	0x3ea43a9d	0.32075968
1	0xbe8cd83b	-0.2750872
2	0xbea94c0a	-0.33065826
3	0xbe857f92	-0.2607389
4	0xbe6598b6	-0.22421536
5	0x3e0a4293	0.13501959
6	0x3df47558	0.11936444
7	0x3e8dd0dd	0.27698413

bn1.weight f4 [8]
0	0x3f57a0cd	0.8422974
1	0x3f738763	0.9512846
2	0x3fb35d03	1.401276
3	0x3f81418e	1.0098131
4	0x3f4c5ea7	0.7983193
5	0x3fdf2f90	1.743639
6	0x3f9d384d	1.2282807
7	0x3f8ae1dd	1.0850178

bn1.bias f4 [8]
0	0xbf364fe0	-0.7121563
1	0xbe26273a	-0.16225901
2	0x3d010c44	0.031505838
3	0xbe4bbf30	-0.19897151
4	0xbf12f787	-0.57408947
5	0x3e23ffa6	0.16015491
6	0xbea72eb1	-0.3265281
7	0xbec59355	-0.38588968

bn1.running_mean f4 [8]
0	0x3ea26420	0.31717014
1	0xbe8e6e27	-0.27818415
2	0xbeb4684a	-0.35235816
3	0xbe84e209	-0.259537
4	0xbe61c02c	-0.22045964
5	0x3df3e91a	0.11909695
6	0x3deb62c7	0.1149345
7	0x3e8f4531	0.27982476

bn1.running_var f4 [8]
0	0x3f8fc9bd	1.1233441
1	0x3f8f87c4	1.1213307
2	0x4022becf	2.542896
3	0x4005c236	2.0899787
4	0x3f8aa973	1.0832962
5	0x40b4c5d7	5.6491504
6	0x3fed72c9	1.8550655
7	0x403f1181	2.9854434

conv2.weight f4 [16, 8, 3, 3]
0	0xbe934960	-0.28766918
1	0xbef0c20b	-0.47023043
2	0xbe975595	-0.2955748
3	0xbe856402	-0.26052862
4	0xbd552f40	-0.052047014
5	0x3e040f42	0.12896445
6	0x3e28fa7b	0.165018
7	0x3d4afa63	0.049555194
8	0x3e9553d4	0.29165518
9	0xbe2ee470	-0.1707933
10	0xbe882f5b	-0.2659863
11	0xbe9add1a	-0.30246812
12	0x3d932da9	0.07186443
13	0x3d5956fe	0.053061478
14	0xbe62579f	-0.22103737
15	0xbd0beae4	-0.034159556
16	0xbd6e9aac	-0.058252975
17	0x3dc480ab	0.09594854
18	0xbdbdffe9	-0.092773266
19	0xbd8cd334	-0.06876221
20	0xbdfa58e6	-0.12223987
21	0xbd6b3ec7	-0.057432916
22	0xbde2fb40	-0.110830784
23	0xbe58e4de	-0.21181056
24	0xbe744456	-0.23854193
25	0xbe5c440b	-0.21510331
26	0xbe42f382	-0.19038203
27	0xbe3c1a16	-0.18369326
28	0xbdea3fcb	-0.11437949
29	0xbe9d0593	-0.30668315
30	0x3ede78ac	0.4345144
31	0x3e932146	0.28736323
32	0x3e8a4418	0.27005076
33	0xbd167319	-0.03673086
34	0xbe1e8074	-0.15478688
35	0xbd4dd25c	-0.050249442
36	0xbbc6110e	-0.0060445135
37	0xbea09859	-0.31366232
38	0xbe85985a	-0.26092798
39	0xbc2a3b08	-0.010390051
40	0x3ce3a6fd	0.027789587
41	0xbd4ba2eb	-0.049715918
42	0xbcac4614	-0.02102951
43	0xbe6a2895	-0.22867043
44	0x3cb51538	0.022104844
45	0xbe4e9187	-0.20172702
46	0xbe7bbd21	-0.24583866
47	0xbe712a97	-0.23551403
48	0x3d650eb1	0.055922214
49	0xbdb1feff	-0.08691215
50	0xbdcea83a	-0.100906804
51	0x3f0e49e2	0.55581486
52	0x3e6dea41	0.23233892
53	0xbc2b999f	-0.010473638
54	0xbd3dbcef	-0.04632276
55	0xbecc3dce	-0.39890903
56	0xbeec3c48	-0.4613974
57	0xbdd454b7	-0.103677206
58	0xbd6db935	-0.058037955
59	0xbeb64f14	-0.35607207
60	0x3e242bc5	0.16032322
61	0xbe1b2ed7	-0.15154587
62	0xbe24b821	-0.16085865
63	0xbea32375	-0.3186299
64	0xbdf215a5	-0.118205346
65	0xbcea4780	-0.028598547
66	0x3ea3501a	0.3189705
67	0x3e8c0a7e	0.27351755
68	0x3f19820f	0.5996408
69	0xbe7b6db1	-0.24553563
70	0xbda617de	-0.08110021
71	0x3e01f44d	0.1269085
72	0xbeb74a46	-0.35798854
73	0xbe96b6cf	-0.29436347
74	0xbe0b6846	-0.13613996
75	0x3e328b89	0.17436041
76	0x3db146c3	0.08656075
77	0x3d91d2c5	0.07120279
78	0x3e202cf9	0.15642156
79	0xbcae2df9	-0.021262156
80	0xbbfdd362	-0.007746146
81	0x3c9cb805	0.019130716
82	0x3d4cbaea	0.049982943
83	0xbc13b7ba	-0.009015972
84	0x3ddfe3f3	0.1093215
85	0x3e62b0cf	0.2213776
86	0x3df0af9f	0.11752247
87	0xbe9b1f28	-0.30297208
88	0xbe70ab36	-0.23502812
89	0xbe0f54eb	-0.13997237
90	0xbe13077b	-0.14358322
91	0xbd679812	-0.05654151
92	0xbd8a8f7a	-0.06765647
93	0xbe56d555	-0.20979817
94	0xbe23012b	-0.15918414
95	0xbdc3c25e	-0.09558557
96	0xbdde0f2a	-0.10842736
97	0xbda07919	-0.078355975
98	0xbd63eac5	-0.055643816
99	0x3e168bef	0.14701818
100	0x3e98f6d3	0.29875812
101	0x3dbdacba	0.092614606
102	0xbd2143f5	-0.03937145
103	0xbe0affc2	-0.13574126
104	0xbe8fca88	-0.28084207
105	0xbecc4b82	-0.39901358
106	0xbe7f2c20	-0.24919176
107	0xbec3a9df	-0.3821554
108	0x3d988771	0.074477084
109	0x3db61612	0.08890928
110	0xbb9dad08	-0.0048118867
111	0x3c9ba4b2	0.018999431
112	0x3e893719	0.2679985
113	0x3e87f0c9	0.26550892
114	0xbe894391	-0.26809362
115	0xbe51981f	-0.20468186
116	0xbccaa0e2	-0.024734918
117	0xbec6314c	-0.38709486
118	0xbe18f3e5	-0.14936788
119	0xbe743401	-0.23847963
120	0xbe88b2aa	-0.2669881
121	0xbe1e104d	-0.15435906
122	0xbd3e6294	-0.04648073
123	0x3f018a17	0.50601333
124	0x3e64b62f	0.22335123
125	0x3e7ebbe4	0.24876362
126	0xbe941162	-0.28919512
127	0xbecd5dda	-0.40110666
128	0xbe515d4b	-0.20445745
129	0xbd9b318c	-0.0757781
130	0x3ea13b30	0.3149047
131	0x3eb79891	0.35858586
132	0xbea22fbb	-0.3167704
133	0x3e3c19dd	0.18369241
134	0x3e9aa2a9	0.30202225
135	0x3e8a95d1	0.27067426
136	0x3dcf1c1f	0.101127855
137	0xbe112ba8	-0.1417681
138	0x3d71d760	0.05904329
139	0xbe92119e	-0.28529066
140	0xbeeec0c0	-0.46631432
141	0xbd59858d	-0.05310588
142	0xbe75021c	-0.23926586
143	0xbeafe51c	-0.34354484
144	0x3deb47f7	0.114883356
145	0xbc2e03bf	-0.01062101
146	0xbd1dedd0	-0.038556874
147	0x3e0c8205	0.13721474
148	0xbdf6025c	-0.12012169
149	0xbea69b7b	-0.32540497
150	0xbf13bafa	-0.5770718
151	0xbe9479c0	-0.28999138
152	0xbe90382d	-0.2816786
153	0xbd92715f	-0.0715053
154	0x3e08bd7b	0.13353531
155	0xbb852a87	-0.0040639075
156	0xbe139a0a	-0.1441423
157	0xbe63a773	-0.22231846
158	0xbef7b82a	-0.48382694
159	0xbec8f4eb	-0.39249358
160	0xbae8f045	-0.0017771801
161	0xbb5e405c	-0.0033912873
162	0x3d717fb2	0.05895967
163	0x3c9c9ffa	0.019119252
164	0xbda74d95	-0.081690945
165	0xbe13b1e2	-0.14423326
166	0xbe866f7b	-0.26256928
167	0xbe384fb2	-0.17999151
168	0x3cd32bda	0.025777746
169	0x3f0cb9fe	0.549713
170	0x3bf859ee	0.00757908
171	0x3e68fa26	0.22751674
172	0xbe1d7f54	-0.15380603
173	0xbf018e0e	-0.50607383
174	0xbe65a8fb	-0.22427742
175	0xbe7279e1	-0.23679306
176	0xbe6e7426	-0.23286495
177	0xbd470442	-0.048588045
178	0x3ec99b43	0.39376268
179	0x3dd82af6	0.10555069
180	0xbb9ee260	-0.0048487633
181	0xbdc7785e	-0.09739755
182	0x3d8d6dde	0.06905721
183	0xbe992d1d	-0.2991723
184	0xbdb4e7a3	-0.08833244
185	0xbda06eb3	-0.07833614
186	0xbe8e5f44	-0.27807057
187	0xbe60a9d7	-0.21939789
188	0x3e0da61c	0.13832897
189	0x3df34fd6	0.11880462
190	0xbe639ba5	-0.22227342
191	0x3e772eb4	0.2413891
192	0x3f1eaa77	0.6197886
193	0x3e9f4fb7	0.31115505
194	0xbe89b8a7	-0.2689869
195	0x3da405ea	0.080089405
196	0xbdd8ee94	-0.1059238
197	0xbeb1796c	-0.3466295
198	0xbdca5574	-0.0987958
199	0x3d893326	0.06699209
200	0x3f1fa2b8	0.62357664
201	0xbeec2691	-0.46123174
202	0x3eaeccd3	0.34140643
203	0xbdce4ea8	-0.10073596
204	0xbec413ec	-0.3829645
205	0xbe9b37c1	-0.30315974
206	0xbe6ca50c	-0.23109835
207	0x3f129b28	0.57268
208	0x3df3aedb	0.118985854
209	0xbece7e27	-0.40330622
210	0xbd781e4e	-0.060575776
211	0xbe95bab5	-0.2924401
212	0xbebfbdce	-0.37449497
213	0xbea5048c	-0.32230031
214	0xbdd721ae	-0.10504471
215	0x3d45ebfe	0.048320763
216	0xbda0840d	-0.07837687
217	0xbbf222fa	-0.0073894234
218	0x3eb789d6	0.35847348
219	0xbe803a09	-0.25044277
220	0xbd9585dd	-0.07300923
221	0x3d9b0c83	0.07570746
222	0x3d655329	0.05598751
223	0xbe84a31f	-0.25905702
224	0xbebf2783	-0.37334833
225	0xbe090231	-0.13379742
226	0x3e809f81	0.25121692
227	0x3f0c0266	0.5469116
228	0xbe9cd8a0	-0.30634022
229	0xbd36ef85	-0.044662017
230	0x3e8d4300	0.2759018
231	0x3dec7731	0.115461715
232	0xbec6e312	-0.38845116
233	0xbe62cb7f	-0.2214794
234	0x3df4a278	0.11945051
235	0x3eada5a4	0.33915436
236	0x3e57f5f6	0.2108992
237	0x3e0b889c	0.13626331
238	0xbd09041b	-0.03345118
239	0x3d17ce5a	0.037062027
240	0x3e11b1cd	0.14227982
241	0xbd8feee9	-0.0702799
242	0xbde39e38	-0.11114162
243	0xbcf8aa56	-0.03035466
244	0xbcfdf897	-0.031002326
245	0x3c424228	0.011856593
246	0xbe9e0325	-0.30861774
247	0xbef50a89	-0.478596
248	0xbea2a6c6	-0.31767863
249	0x3e83c003	0.2573243
250	0x3dd9c6dc	0.106336325
251	0xbd8c2c7e	-0.06844424
252	0xbe5e0e94	-0.21685249
253	0x3dba81a3	0.091067575
254	0x3f01a620	0.5064411
255	0xbea39255	-0.3194758

conv2.bias f4 [16]
0	0x3d03418e	0.03204494
1	0x3d1ea5f7	0.038732495
2	0x3db7c21c	0.0897257
3	0xbd4f7ddf	-0.05065715
4	0xbcd929e0	-0.026509225
5	0x3d03a3d2	0.032138653
6	0x3c5261e6	0.012840724
7	0x3dc2a0ab	0.09503301
8	0xbd7d8a15	-0.061899263
9	0xbb8ca210	-0.0042917803
10	0x3cb46492	0.022020612
11	0xbd00348b	-0.03130011
12	0x3da48970	0.080340266
13	0x3c53351c	0.01289108
14	0xbddf123d	-0.108921506
15	0xbc513094	-0.01276793

bn2.weight f4 [16]
0	0x3f55c156	0.8349813
1	0x3f2b1042	0.6682168
2	0x3f5c628a	0.8608786
3	0x3f7fa0f0	0.99854946
4	0x3f51f471	0.82013613
5	0x3ee610a2	0.44934565
6	0x3f28cb4c	0.65935206
7	0x3f87b9c6	1.0603569
8	0x3f54072c	0.82823443
9	0x3f91b6b8	1.1383886
10	0x3f27920f	0.6545724
11	0x3f028485	0.5098346
12	0x3f71223c	0.9419286
13	0x3f225321	0.63408095
14	0x3f3f42ba	0.7471119
15	0x3f24c90f	0.6436929

bn2.bias f4 [16]
0	0xbf14017a	-0.57814753
1	0xbee05b62	-0.4381972
2	0xbf08c2e4	-0.5342238
3	0xbefcc706	-0.49370593
4	0xbecf969e	-0.405446
5	0xbf16f003	-0.5895998
6	0xbefe1186	-0.49622744
7	0xbf11cd15	-0.56953555
8	0xbf6f743d	-0.9353674
9	0xbf29e079	-0.66358143
10	0xbf99453b	-1.1974252
11	0xbe749796	-0.2388595
12	0xbf297b5b	-0.6620385
13	0xbe8d8b08	-0.27645135
14	0xbf9e4a34	-1.2366395
15	0xbf953a3d	-1.1658398

bn2.running_mean f4 [16]
0	0xc0114b67	-2.2702272
1	0xbfe6b558	-1.8024092
2	0xbfc661f2	-1.549864
3	0xbf405357	-0.75127167
4	0xbf904d1f	-1.1273535
5	0x3f8e9f96	1.1142452
6	0xbfb25c43	-1.3934406
7	0xbff4f870	-1.9138317
8	0xbfd629f7	-1.6731557
9	0xc05632d3	-3.346852
10	0x3f21262d	0.62948877
11	0xbfdc83eb	-1.7227758
12	0xbfba596b	-1.4558538
13	0x3db11645	0.08646826
14	0xbf787b8f	-0.97063535
15	0x3f8f85dc	1.1212726

bn2.running_var f4 [16]
0	0x4140aeb9	12.042657
1	0x410de2e5	8.867894
2	0x41829ec7	16.327528
3	0x4112c158	9.172203
4	0x410657d2	8.3964405
5	0x4127524e	10.457594
6	0x415cf055	13.808675
7	0x4157f552	13.497393
8	0x4141933e	12.098448
9	0x41ba6565	23.29951
10	0x40c3893c	6.1105022
11	0x4118f3c0	9.559509
12	0x41090c89	8.56556
13	0x413b781c	11.716824
14	0x409830da	4.7559633
15	0x40fa5eed	7.8240876

fc.weight f4 [10, 784]
0	0xbd5eb852	-0.054375
1	0xbd1447b1	-0.036201183
2	0xbdd73843	-0.10508778
3	0xbe289b68	-0.16465533
4	0xbe37fe7c	-0.17968172
5	0xbdebd751	-0.11515678
6	0xbd963ed4	-0.07336202
7	0x3af739ea	0.0018861864
8	0xbdd4d182	-0.10391523
9	0x3cc2a99d	0.023762519
10	0x3e05c0e6	0.13061866
11	0x3dd5d876	0.10441677
12	0x3cfa452c	0.030550562
13	0x3cdaa8b0	0.026691765
14	0xbd81fba0	-0.06346822
15	0xbdf2f585	-0.118632354
16	0xbe01bbe4	-0.12669331
17	0x3d81a2d5	0.06329886
18	0x3cf6591d	0.03007179
19	0x3dd892b2	0.10574855
20	0xbda39697	-0.07987707
21	0xbcc17b63	-0.023618406
22	0xbe297149	-0.16547121
23	0xbe3c8e0a	-0.18413559
24	0xbe746c01	-0.23869325
25	0xbe729d74	-0.23692876
26	0xbe9bc467	-0.3042328
27	0xbd8ade98	-0.06780738
28	0xbd02f7a4	-0.03197445
29	0xbe46a022	-0.19397023
30	0x3d6a9447	0.057270315
31	0x3d0964dc	0.033543453
32	0x3dc80866	0.09767227
33	0xbe5a14fa	-0.21297064
34	0xbe0a7817	-0.13522373
35	0xbd51d07b	-0.051224213
36	0xbe2af4c3	-0.16694932
37	0xbd5b0b8f	-0.05347782
38	0x3d3f9355	0.046771366
39	0x3dc515eb	0.09623321
40	0xbd9d4a2e	-0.07680164
41	0x3bac5131	0.005258702
42	0x3bdb048a	0.0066838907
43	0x3c7a124f	0.015263154
44	0xbd0ca40a	-0.034336127
45	0xbd013edd	-0.03155409
46	0x3c6cbcb1	0.014449284
47	0x3cfe65d2	0.031054411
48	0xbd215c9d	-0.039394964
49	0xbda16788	-0.07881075
50	0xbceac8cd	-0.028660202
51	0xbc0f662b	-0.008752386
52	0x3ca25e85	0.019820461
53	0x3b47ee49	0.003050702
54	0x3d69bbf1	0.057064
55	0x3d5dc678	0.054144353
56	0xbd3b57ee	-0.045738153
57	0xbc8cfd32	-0.017210577
58	0xbd116954	-0.03550084
59	0xbe06c827	-0.1316229
60	0xbe81c012	-0.2534185
61	0xbddce37e	-0.10785578
62	0x3db18c97	0.086693935
63	0xbcaf2a60	-0.02138251
64	0xbd99adc2	-0.07503845
65	0x3dbe6dcb	0.09298285
66	0x3d250b6b	0.040294092
67	0xbe533b32	-0.2062805
68	0xbce53ec0	-0.027984023
69	0x3d6ce3f4	0.05783458
70	0xbc8a82de	-0.016908105
71	0xbadcd435	-0.0016847911
72	0xbe25cff3	-0.16192608
73	0xbf2282c1	-0.63480765
74	0xbe857d1a	-0.26072007
75	0x3c922a93	0.017842567
76	0x3b50a6a5	0.003183761
77	0x3ba1e14a	0.0049401866
78	0x3da09bf0	0.07842243
79	0xbe97b6a6	-0.29631537
80	0x3d5f5f55	0.054534275
81	0x3e06f2ed	0.13178606
82	0x3d455d6e	0.048184805
83	0xbd554e11	-0.052076403
84	0x3d2903de	0.041263454
85	0x3d29cf5e	0.041457526
86	0x3c93913c	0.01801359
87	0x3e216fbc	0.1576528
88	0x3eda8fa2	0.42687708
89	0x3df3870c	0.118909925
90	0x3d288ec0	0.041151762
91	0xbd2e5ad1	-0.042567078
92	0xbd18bb1b	-0.037287813
93	0xbe3259db	-0.1741709
94	0xbe1cbdac	-0.15306729
95	0xbd002133	-0.03128166
96	0xbcde1538	-0.027109727
97	0xbcef70dd	-0.029228622
98	0xbcde97aa	-0.027171928
99	0x3c142a29	0.009043255
100	0xbd2bd3f6	-0.04195019
101	0xbd07a21e	-0.03311359
102	0x3d9fb90c	0.07798967
103	0x3d0b8d66	0.034070395
104	0x3ccc1ab5	0.024915079
105	0x3d07c906	0.033150695
106	0x3d04d9b6	0.032434188
107	0xbd5155a8	-0.05110708
108	0xbe16b7c2	-0.14718536
109	0xbe81cda6	-0.2535221
110	0xbe3a0aa1	-0.18168117
111	0xbdd5b689	-0.104352064
112	0xbd7f8a04	-0.06238748
113	0xbd8a8fb6	-0.06765692
114	0xbdccab6a	-0.09993632
115	0xbe6ed415	-0.2332309
116	0xbdb42baf	-0.087973945
117	0xbe044a43	-0.12918954
118	0xbd2b2211	-0.041780535
119	0xbc8423f4	-0.016130425
120	0xbe72c862	-0.23709252
121	0xbe68f426	-0.22749385
122	0xbcdba45e	-0.026811775
123	0xbd3730de	-0.044724338
124	0xbe629263	-0.22126155
125	0xbdc4d71c	-0.09611341
126	0x3c8c49c9	0.017125027
127	0xbe869951	-0.26288846
128	0xbe6ffd3b	-0.23436444
129	0xbea7f9e0	-0.32807827
130	0x3e8c8ce2	0.27451235
131	0x3e3fccc2	0.18730453
132	0xbd5e8aa7	-0.054331448
133	0xbcbb99a6	-0.022900414
134	0x3c6fdbc7	0.014639801
135	0x3b89c55b	0.004204435
136	0x3ec1a3b3	0.37820205
137	0x3e679654	0.2261594
138	0x3e1b0550	0.15138745
139	0xbd29e9e7	-0.041482832
140	0x3d0e4a25	0.03473868
141	0x3cca7c8a	0.024717588
142	0x3e152959	0.14566554
143	0x3cce26b9	0.025164949
144	0xbd821fa8	-0.06353694
145	0xbdc8bbd8	-0.09801453
146	0x3ba7b3fd	0.005117892
147	0x3c4eed69	0.012629845
148	0xbd0d1b0c	-0.034449622
149	0xbd2cd94b	-0.042199414
150	0xbd2c613f	-0.04208493
151	0xbd8fe91a	-0.070268825
152	0xbdcd21e9	-0.100162335
153	0xbc09a611	-0.00840141
154	0xbd38f58c	-0.045156047
155	0xbdfb0219	-0.122562595
156	0xbdbc5b00	-0.091970444
157	0x3d1ec40e	0.03876119
158	0x3e585871	0.21127488
159	0x3d923d86	0.07140641
160	0x3d4adbf0	0.049526155
161	0xbccfa38c	-0.02534654
162	0xbe82b647	-0.25529692
163	0xbeb6d104	-0.3570634
164	0x3e7d56eb	0.24740188
165	0x3e0a9a91	0.13535525
166	0xbe329be3	-0.17442279
167	0x3be75b44	0.0070604403
168	0xbd7aa996	-0.061196886
169	0xbe9702b5	-0.29494253
170	0xbebd368c	-0.36955678
171	0x3e38a6d8	0.18032396
172	0x3e8f26a0	0.27959156
173	0xbe188568	-0.1489464
174	0xbd869d89	-0.06573016
175	0xbc4aa7ab	-0.012369077
176	0x3dc3f648	0.09568459
177	0xbda0e2ec	-0.07855782
178	0x3d81f67a	0.0634584
179	0x3d383b6e	0.04497855
180	0xbcddabd2	-0.02705947
181	0xbd67979f	-0.05654108
182	0x3d6f5f5b	0.058440547
183	0x3d6ef63a	0.05834029
184	0x3e8f1f41	0.27953532
185	0xbe04c484	-0.1296559
186	0xbe121e51	-0.14269377
187	0xbb8f837e	-0.0043796888
188	0xbc4e50e2	-0.012592526
189	0x3c2541d9	0.0100865
190	0x3d6a49a4	0.057199135
191	0x3c5eba0a	0.01359416
192	0xbec7fb69	-0.39058998
193	0xbe897524	-0.26847184
194	0xbce173be	-0.02752101
195	0xbb901ccc	-0.004397964
196	0xbd509f5e	-0.050933234
197	0xbcd4dc7a	-0.025984038
198	0xbc6ba39b	-0.014382268
199	0x3a506b7f	0.00079505885
200	0xbc9eb2bf	-0.019372342
201	0x3c33ffb1	0.010986255
202	0xbc77b0bd	-0.015117821
203	0xbd2ec514	-0.042668417
204	0x3d06fecc	0.032957837
205	0x3db82f84	0.08993438
206	0xbd0eb5d0	-0.03484136
207	0xbdcfbbb9	-0.10143227
208	0xbc96e1c0	-0.018418193
209	0x3c691a7e	0.014227508
210	0x3da8b666	0.08237915
211	0x3dac83d3	0.08423581
212	0xbd11973b	-0.035544615
213	0xbdd88186	-0.1057158
214	0x3c736611	0.0148558775
215	0xbba8cf37	-0.005151655
216	0xbcf22359	-0.02955787
217	0x3e0d6671	0.1380861
218	0x3dd7b534	0.10532609
219	0xbdb75c61	-0.08953167
220	0xbe027068	-0.12738192
221	0x3e18bf5a	0.14916745
222	0xbca94308	-0.020661846
223	0xbd842be9	-0.06453688
224	0xbd4151b4	-0.04719706
225	0xbe6a8aa9	-0.22904457
226	0xbe9d655e	-0.307414
227	0xbe0eb4e8	-0.13936198
228	0x3d916163	0.07098653
229	0x3c90a604	0.017657287
230	0xbc677e01	-0.014129163
231	0xbd97f6ca	-0.07420118
232	0xbd50376b	-0.0508341
233	0xbe087623	-0.13326316
234	0xbda85521	-0.08219362
235	0x3dda1f88	0.10650545
236	0x3d8698d3	0.06572118
237	0xbd04c2eb	-0.03241245
238	0xbc0f6698	-0.008752488
239	0x3d77d6ca	0.060507573
240	0x3cbb6d12	0.022879157
241	0xbd35a521	-0.044346932
242	0xbe0e5e72	-0.13903216
243	0xbdaa94bb	-0.08329149
244	0xbcbe84e2	-0.023256723
245	0xbd198a4a	-0.0374854
246	0xbcff9aba	-0.031201709
247	0xbd817151	-0.063204415
248	0xbdf90ded	-0.12160859
249	0x3b357d6d	0.0027693168
250	0x3c55b289	0.013043054
251	0x3c342531	0.010995195
252	0xbb69aeb5	-0.0035657112
253	0xbde3bae2	-0.111196294
254	0xbd72811a	-0.059205152
255	0x3cc87c2d	0.024473274

fc.bias f4 [10]
0	0xbc43c99e	-0.011949925
1	0x3f0e5b00	0.55607605
2	0xbdc3385f	-0.09532236
3	0xbdcde1a7	-0.100528054
4	0x3d8b5fcb	0.068053804
5	0xbdda5a02	-0.10661699
6	0xbdc99b47	-0.0984407
7	0x3dc7d5df	0.097575895
8	0xbe8cf29b	-0.27528843
9	0xbdfeff3c	-0.12451026
