mnist_model.pth (torch, 41269 bytes, 14 tensors)

conv1.weight f4 [8, 1, 3, 3]
00000000: 3731 ff3e f839 193f 4674 0cbf e620 65bd
00000010: a018 e43e c412 90bd ebee 6abf 429c 963e
00000020: 3379 003f ab90 4fbf abdc 1bbe a340 dd3e
00000030: 3f46 b9bd 3dfa fc3d 9959 393f b8c2 c53c
00000040: bb16 e83d b109 1ebe 0a7a cdbe 922c d4be
00000050: 5dcf 9ebd 684c 7ebe b67e aebe b1d6 183f
00000060: aca8 22bf 2388 a2be 8965 043f 3738 453d
00000070: 115e 01bf e7ec a3bf cc38 cd3c 37f2 91be
00000080: 96e2 e43e 5f13 923d d6ea ee3e 4584 673f
00000090: b650 b2be bf4a ce3e 85d8 d03e 656b 0cbe
000000a0: 56e3 0c3f 49d7 be3b ef02 0a3e 251f c13e
000000b0: 5ca2 5bbd 82ed 2b3f 63f1 5e3f 86c3 793f
000000c0: aded c6be 7879 373e 3acf 61bf 66c5 8fbf
000000d0: 7da3 50bf 663a 0fbf 4076 63be 58f1 3b3f
000000e0: 4e7b 0f3e e980 123f ddef 193f b324 75bf
000000f0: dd81 da3e 7428 a2be 55b9 a2be 24eb 503e
00000100: 1cb5 3fbf c004 4cbf 91fd 5f3f 64c3 82bd
00000110: 5743 4ebf ad34 053f 6a10 833f 746d a23e
0.49842235 0.5985408 -0.5486492 -0.055939578 0.44550037 -0.07034829 -0.9177081 0.2941609
0.50184935 -0.8108012 -0.15220897 0.43213376 -0.090466015 0.12352417 0.7240234 0.0241407
0.113324605 -0.15433384 -0.4013217 -0.41440254 -0.07754395 -0.24833834 -0.34081048 0.59702593
-0.6353862 -0.3174449 0.5171743 0.048149314 -0.5053416 -1.2806672 0.025051497 -0.28505108
0.4470412 0.07132601 0.4666354 0.904362 -0.34827203 0.40291402 0.4079019 -0.13712843
0.5503439 0.005824004 0.13477682 0.37719074 -0.053621635 0.67159283 0.87087077 0.9756397
-0.38853207 0.1791743 -0.8820683 -1.1232116 -0.81499463 -0.55948484 -0.22213078 0.73415136
0.14011881 0.5722795 0.6013163 -0.95759124 0.42677203 -0.31671488 -0.31782022 0.20402199
-0.74885726 -0.7969475 0.87496287 -0.06384924 -0.805715 0.520335 1.0239384 0.3172413

conv1.bias f4 [8]
00000000: 3e36 a43e a7d9 8cbe 1041 a9be 8983 85be
00000010: 4aa2 65be 4242 0a3e 4e57 f43d 7dca 8d3e
0.32072634 -0.27509806 -0.3305745 -0.26076916 -0.2242519 0.13501838 0.119307145 0.2769355

bn1.weight f4 [8]
00000000: f864 6e3f 1266 7b3f 9ff9 b83f b7ff 8a3f
00000010: 53df 523f 3aa6 cb3f f96b a03f 182e 773f
0.93122816 0.9820262 1.4451178 1.0859288 0.82372016 1.5910103 1.2532951 0.9655471

bn1.bias f4 [8]
00000000: 374d 35bf 995f 76be 99e1 e9bc e124 1cbe
00000010: 2927 cebe d1a9 1e3e c386 e7be 34e7 01bf
-0.70820946 -0.24059905 -0.028549956 -0.15248443 -0.40264252 0.15494467 -0.45220003 -0.5074341

bn1.running_mean f4 [8]
00000000: f12b a33e 36ea 8fbe aa85 b5be 8d06 86be
00000010: 2eca 56be 264c eb3d 1a7a f73d cb5b 943e
0.31869462 -0.28108376 -0.3545354 -0.26176873 -0.20975563 0.114891335 0.12083836 0.28976282

bn1.running_var f4 [8]
00000000: 18cf 6d3f aa83 883f 4bd6 1e40 b289 0940
00000010: f77e db3f 4ae9 a540 74b8 e73f 867b 4340
0.92894125 1.0665181 2.4818294 2.1490293 1.7148122 5.1847277 1.8103166 3.0544143

conv2.weight f4 [16, 8, 3, 3]
00000000: c61c 58be 8fd8 f0be 2c4a 9ebe 2b4c 5ebe
00000010: fdb9 25bd 7cda c63d 9e99 383e ae33 043e
00000020: 586a 963e e674 3fbe 16cb 83be 96b0 a5be
00000030: 85d9 e53c 86d6 e93c 86fb 83be 2d64 91bd
00000040: 8dfb 38bd ffbb bfbb 6eab 00be 91e1 e3bd
00000050: dc59 22be d612 dcbd 998e 2bbe f733 69be
00000060: 3109 84be 4ba4 73be ee91 3dbe 14d8 00be
00000070: 8d9b c0bd c316 96be 865a f53e 111f a93e
00000080: 33f3 a73e 7ded 57bd 5598 ebbd f9d8 43bd
00000090: 0d93 d8bc e35b a4be 2ecd a2be 9280 55bb
000000a0: 15dd 2c3d ce6e 90bd 95ac 4abd 59c9 79be
000000b0: fa81 b73b ea52 33be c76a 4cbe 4a8b 30be
000000c0: 52ee 9a3d 3358 9bbd 5eef 2ebe 2bb2 153f
000000d0: fcd0 7e3e d002 293b 4243 38bb b50c debe
000000e0: d98c d0be 85cf 30be 5a37 f6bd 246d afbe
000000f0: 43ad 003e fe55 c5bd 3a4a 5abd 423d 81be
00000100: 4a49 dabd 5d60 8abd 9e39 a33e ef68 793e
00000110: deef 0b3f f957 98be 7021 85bd f077 1b3e
00000120: 8cd3 bfbe 6164 8dbe c1ab 41bd c34f 443e
00000130: c106 a83d c95b bf3d f2bb 9b3e 09cf e8bb
00000140: 1200 2b3c 29fe 7c3d 9ba6 343d d38c 883c
00000150: 10ff bf3d b425 0f3e abea d63d 2ff4 92be
00000160: 407d 8ebe 51e2 c6bd c49d e7bd b3c4 c9bd
00000170: 9218 c6bd b283 e1bd 6b02 93bd 22a4 adbd
00000180: 807a 35bd 9ee7 863b 870b 0cbc 9fac 273e
00000190: 81b5 9a3e cf73 333e 23e8 68bd 8086 b7bd
000001a0: 901f bcbe 0d11 cbbe 9764 6abe f68f a9be
000001b0: c5cd 5c3c 89e4 e23d 203b b03a cc0a 913d
000001c0: 5fe9 803e 02db 9b3e 0a8d 4abe 33b6 75be
000001d0: 5fd5 da3b 9caa afbe cf17 10be 3b35 07be
000001e0: 5404 d7be a7b2 14be 89ca ec3c 7ea6 d43e
000001f0: 093b 6b3e 7e81 9b3e a72a cdbe 17ee c9be
00000200: 7532 96be e143 d03c d2ba 823e ed07 8b3e
00000210: ad2f 63be 6466 063e 7d01 b53e 64ce 543e
00000220: 262a 023e 3642 f1bd 4a2c 013d 6657 9dbe
00000230: 201f 01bf dace 11bd 9357 50be 3da4 8ebe
00000240: 3618 ea3c 1a46 833d 37aa aebd 026f 753e
00000250: 71e6 4cbe fa7e 67be 9c06 0ebf 7d69 99be
00000260: 9ee7 8bbe 9a97 c9bd edf5 703e d85b 043c
00000270: 3994 5cbe 573c 26be f000 0cbf 4bca d8be
00000280: 358e 85bc 1110 bc3d 6cb0 ad3d d9ce 9c3c
00000290: 38df c9bd f853 fcbd 34e7 70be d789 57be
000002a0: 73ee 14bd 6b6e 023f 62a2 c13d 1e77 593e
000002b0: 13ad 8fbe 3dc2 f3be 7620 d2bd 83dc 84be
000002c0: 2d20 86be c825 18bd 31ab e33e 2098 543e
000002d0: 5342 8e3c feeb e8bd 87ae e13d 0472 92be
000002e0: c4fa a0bd 094d 03be 111f 9fbe 529e 72be
000002f0: c2d8 443e 4299 c0bc 713f 79be 2dd6 523e
00000300: dbca 0a3f 92f3 bb3e 4e1f 1ebe 66d7 6f3e
00000310: 2e29 883d 3d2b b7be abb6 bfbd 9841 81bd
00000320: 099c fd3e 96cd 04bf b975 bb3e 0392 eabc
00000330: 920c 9cbe d826 8dbe 9619 8ebe a82c 1f3f
00000340: afa6 be3d 1e49 e9be 7c8a 843c 7551 b1be
00000350: c54e e7be 72af 95be 8586 4ebe a5f4 513d
00000360: f116 3b3e 7518 873b 8a00 d23e d1c5 62be
00000370: 8f42 e1bc e6a0 a13e b243 843d 8bec 88be
00000380: 246a a6be 7aa4 11be e436 553e 7984 cc3e
00000390: f3b1 b4be ca89 a53c 3837 483e d7b2 a43c
000003a0: 072c bebe 0274 4bbe a00b c03d 58a6 c63e
000003b0: 48e0 493e 0732 683d 3d9e 1d3d e8da d2bd
000003c0: 3471 eb3d 8a0e babd c295 09be 45a7 eebd
000003d0: 924e b9bd 3aaf 583b 8e26 a5be e5b3 13bf
000003e0: 7b5c 9fbe 29fa 8c3e 7dc1 153e 3b55 c6bd
000003f0: 2a1b 60be 3080 e43d ecf9 0e3f 4b6e cabe
-0.21104726 -0.4704022 -0.30915964 -0.21708743 -0.040460575 0.09709641 0.1802735 0.12910339
0.2937801 -0.18696937 -0.2574088 -0.32361287 0.028057823 0.028544676 -0.25777835 -0.07099185
-0.045161773 -0.0058512683 -0.12565395 -0.11127008 -0.15854591 -0.1074578 -0.16753615 -0.2277373
-0.25788262 -0.23793142 -0.18512699 -0.12582427 -0.09404669 -0.2931424 0.47920626 0.33031514
0.32802734 -0.05271672 -0.115036644 -0.047814343 -0.026437307 -0.32101354 -0.31797165 -0.0032577855
0.042203028 -0.07052384 -0.049480993 -0.24393214 0.005600211 -0.17512098 -0.19962607 -0.17240635
0.07564987 -0.07585182 -0.17083499 0.5847499 0.24884409 0.002578903 -0.002811626 -0.4336907
-0.40732458 -0.17266662 -0.12022276 -0.34262955 0.12566094 -0.09635542 -0.053293444 -0.25242049
-0.1065851 -0.06756661 0.31879896 0.24356435 0.54662883 -0.29754618 -0.06500518 0.15182471
-0.37466085 -0.27615646 -0.047282938 0.19171052 0.08204413 0.093436785 0.30416828 -0.0071047586
0.0104370285 0.061765824 0.0441042 0.016668713 0.09374821 0.13979226 0.10493978 -0.28701922
-0.27829933 -0.09711135 -0.11309388 -0.098519705 -0.09672655 -0.11011447 -0.071781956 -0.084785715
-0.04430628 0.0041169664 -0.00854767 0.16374443 0.30216601 0.17524646 -0.056862008 -0.08961201
-0.3674283 -0.39661446 -0.22889934 -0.33117646 0.013476794 0.11078746 0.0013445355 0.070821375
0.25178048 0.30440527 -0.19780365 -0.23995285 0.006678268 -0.34309852 -0.14071582 -0.132039
-0.4199549 -0.14521275 0.02890517 0.41533273 0.22971739 0.30372232 -0.40071604 -0.3943946
-0.2933537 0.025422992 0.25533158 0.27154484 -0.22186156 0.13124996 0.35352698 0.20781857
0.12711391 -0.11780207 0.031536378 -0.30730742 -0.5043812 -0.03559766 -0.20345907 -0.2785968
0.028575998 0.06409855 -0.0852856 0.23968127 -0.20009781 -0.22607031 -0.55478835 -0.29963294
-0.27325147 -0.09843369 0.23531313 0.008078538 -0.21540917 -0.16233955 -0.5468893 -0.42341837
-0.016303161 0.09182752 0.084809154 0.019141601 -0.09857029 -0.12320703 -0.23525697 -0.21048675
-0.036360215 0.50949734 0.094548 0.21236846 -0.28061733 -0.4760913 -0.10260098 -0.25949487
-0.26196423 -0.037145406 0.44466546 0.20761156 0.01736561 -0.11373137 0.110196166 -0.28602612
-0.0786033 -0.12822355 -0.3107839 -0.23693207 0.19223312 -0.023510579 -0.24340607 0.20589514
0.5421578 0.36709267 -0.1544163 0.23422012 0.066484794 -0.35775176 -0.09361013 -0.06311339
0.49533108 -0.518762 0.36613253 -0.028634077 -0.3047834 -0.27568698 -0.27753896 0.62177515
0.09309136 -0.45563596 0.016179316 -0.3463246 -0.45177284 -0.29235417 -0.20168503 0.0512587
0.1827047 0.0041227886 0.41016036 -0.22145773 -0.027497558 0.31568068 0.06458224 -0.26742968
-0.32502854 -0.14222899 0.2082172 0.3994482 -0.35292014 0.020207305 0.19552314 0.020104809
-0.37142965 -0.19868472 0.09377217 0.38798785 0.19714463 0.056688335 0.038480986 -0.10295659
0.11496201 -0.09084804 -0.13436034 -0.11652998 -0.09048189 0.0033063428 -0.32255977 -0.5769637
-0.31125244 0.27534607 0.14624591 -0.09684225 -0.21885362 0.11157262 0.558501 -0.39537272

conv2.bias f4 [16]
00000000: eb41 033d 48a5 1e3d c9c2 b73d d37c 4fbd
00000010: e62a d9bc 75a3 033d 8961 523c 62a0 c23d
00000020: 6d89 7dbd bba1 8cbb 7163 b43c fb32 00bd
00000030: 6e8a a43d d434 533c ae12 dfbd 7b32 51bc
0.032045286 0.038731843 0.08972699 -0.05065615 -0.026509713 0.032138307 0.012840637 0.09503247
-0.061898638 -0.0042917407 0.022020074 -0.03129862 0.08034216 0.012891013 -0.10892235 -0.012768383

bn2.weight f4 [16]
00000000: af7f 4f3f c7a8 1f3f 3ebf 743f ddf5 6b3f
00000010: 8c30 4d3f b20d f23e 5728 253f 6c66 943f
00000020: c7c8 3e3f 94df 993f 293e 1a3f d1e8 fa3e
00000030: d00d 6d3f 771b 2c3f e213 243f 7d6e 213f
0.81054205 0.6236691 0.9560431 0.9217203 0.801522 0.47276074 0.6451468 1.1593757
0.7452511 1.2021356 0.602511 0.4900575 0.925992 0.6722941 0.6409284 0.63059217

bn2.bias f4 [16]
00000000: 9669 09bf 2106 aabe b139 1abf dcb2 edbe
00000010: b7bb efbe b75c 14bf dcfc cfbe e3b5 1cbf
00000020: c7e0 99bf 1ca0 2ebf 6bd6 9cbf 24d5 7fbe
00000030: 9a42 18bf 5918 8fbe 9b82 87bf 8ffe 90bf
-0.53676736 -0.332078 -0.6024428 -0.4642552 -0.46822903 -0.5795397 -0.40622604 -0.6121504
-1.2021722 -0.6821306 -1.2252935 -0.2498365 -0.59476626 -0.27948263 -1.0586733 -1.1327685

bn2.running_mean f4 [16]
00000000: d194 11c0 6a8d adbf 00c8 bbbf 81ca 96bf
00000010: 481c a3bf d0df a33e c94d 95bf ab0f edbf
00000020: 7ef6 42bf db51 48c0 00b0 c33c 326a dabf
00000030: 781b c1bf 9222 fbbe 8419 07be b5a8 a43f
-2.274708 -1.3558781 -1.467041 -1.1780549 -1.2743006 0.32006693 -1.1664363 -1.8520406
-0.7615737 -3.129996 0.023887634 -1.7063658 -1.5086508 -0.49049813 -0.13193327 1.2863985

bn2.running_var f4 [16]
00000000: 8eb0 3241 6184 e140 80f5 6841 cad5 1f41
00000010: f321 0a41 3016 fc40 e4bd 5441 c27b 4441
00000020: 3256 2141 6908 a041 b6da 6240 6383 1741
00000030: f5fe 0f41 7940 3c41 1abb af40 1958 e740
11.168104 7.0474095 14.559937 9.989695 8.633288 7.8777084 13.29636 12.280214
10.083544 20.004107 3.544599 9.469577 8.999745 11.76574 5.4915895 7.229504

fc.weight f4 [10, 784]
00000000: 8ead 5fbd 4047 1bbd c9bd a3bd afe1 13be
00000010: a2e9 1dbe 1b2c f6bd 100b 98bd e37b 873b
00000020: 2374 f3bd 21c0 2b3c 4b01 e03d f08c d53d
00000030: 43ba de3c 33a5 cb3c 34a0 70bd 32a5 e8bd
00000040: d416 c7bd 385e 8c3d d4f7 363d d56d 933d
00000050: beaa 47bd 3352 08bd e7a2 22be 685e 2abe
00000060: 1993 45be 6ce3 2fbe 50a1 8ebe 633b 7cbd
00000070: 19f7 03bd 9d75 3fbe 27b4 943c 48ce 2f3d
00000080: 64ef c43d 89e6 5fbe a2bd f6bd 7b0d 62bd
00000090: 4a67 3dbe 139d 74bc a795 ae3d cb8f 563c
000000a0: 2945 c9bd 2670 543b ea80 da3b 57ab 783c
000000b0: 3d9d f8bc 4e87 01bd 9c0a 5f3c afee d93c
000000c0: 71f9 1dbd 197b a1bd 90a1 eabc e46d 39bc
000000d0: 2546 863c e790 bf39 5596 663d f582 5f3d
000000e0: 2562 3cbd 09ca 59bc e242 7abc 4218 1bbe
000000f0: 1ede 4fbe bd2c f4bd 1228 c03d 4ce7 b7bc
00000100: 7522 bcbd b81f b63c a9bf 583d 0824 1abe
00000110: fa0d c9bd b5f2 553d 4789 c8bc f80b 323c
00000120: fdc9 fabd c29b 2dbf a293 a3be 3979 303d
00000130: 38f5 78bc 04f6 23bb 2c25 703d 4c7c abbe
00000140: 44dc 813c 1166 3f3e 9917 433d 79cf 49bd
00000150: 4620 103d 4f3e 9d3d 25b9 993d 22d3 093e
00000160: b695 ba3e 7de7 e53d 1b1a 323d 4e8b 2ebd
00000170: b2b1 0dbd 0cfa 1cbe 20d6 f8bd f73b d8bc
00000180: f0a9 d5bc 8376 efbc 513e b7bc 2a53 ce3c
00000190: 4014 94bc d0e3 58bd ed8d 913d bde8 3b3d
000001a0: 397d 7d3c 8892 bc3c bd49 ee3c 4588 06bd
000001b0: 5882 fbbd 4045 82be 171a 39be 9c93 bebd
000001c0: 3104 71bd d86a 8cbd 4b38 c7bd 7718 20be
000001d0: 8809 a4bd a484 30be 1bc0 69bd 80b6 97bc
000001e0: 38c8 74be f20a 85be 5e13 993c 4a84 65bd
000001f0: 1126 48be 3ad0 d6bd d461 af3c 8b4f 6abe
00000200: 2745 54be 4385 79be fb31 813e 48dd 5b3e
00000210: 9727 e13b 9a9e 1bbd 952f dd3c b00e 5ebc
00000220: 8b10 c63e 788d 0b3e 40d8 a53d 063a 4ebd
00000230: 771a 4b3c 7a88 abbb 05d5 093e 7b5d e13d
00000240: 7937 3ebc 6390 01be 1f6c 303c bbb9 4e3c
00000250: c9c2 12bd 1f66 23bd 2c53 213c 1a04 bdbd
00000260: 6737 c0bd 9f4f 47bc 54a9 71bd 57ee c9bd
00000270: b701 8dbd 6879 693d 0440 803e 7f11 c23d
00000280: a6d3 2f3d 8f4c 16bd 4844 92be fbd6 a3be
00000290: be5c 5e3e 01f2 053e 02a3 51be 6d76 c73c
000002a0: 45cf a2bc 9f8b 9fbe 0187 a4be fef0 6f3e
000002b0: 241b 8b3e f555 fbbd 3dfd 24bd b597 62bd
000002c0: dc97 193e 2960 a2bb 4412 923d af12 5dbd
000002d0: 2adf fa3b fea5 2e3c 0acb 6b3d e558 7a3d
000002e0: f991 853e eddb ddbd f36d ffbd b308 8dbb
000002f0: da92 f03c 2d70 8f3c 9914 153d 67ff dcbc
00000300: 81d6 b9be d405 90be ca1f 2fbd a8a2 203b
00000310: bd20 80bd 3b37 cabc 2c4b 1abb 3a0c 12bd
00000320: f6dc 83bc 2e48 103b 7692 15bc 4df0 27bd
00000330: f37e f23c b0f3 423d 4130 6cbc a4f9 c2bd
00000340: 3825 71bc fe3e 983c 024b 9e3d 3833 aa3d
00000350: f2b5 acbb c8ed ddbd 761b 153d b3f1 53bc
00000360: d727 f3bc 76f2 023e bff6 b83d 887f f6bd
00000370: ac3e d7bd bd6a 0b3e c1c5 90bc b891 81bd
00000380: 18e6 f0bc 9774 92be 1fe8 9dbe a52a 13be
00000390: f8ee a83d f84f 4c3c 477b 80bc a5b1 a5bd
000003a0: 635f 7cbd 3ba4 cdbd 577b a6bd e7c2 da3d
000003b0: 7981 813d 0b0f f7bc e689 09bc 3ca5 6f3d
000003c0: 928b 463d 6970 fdbc 74ad 03be e1b0 bcbd
000003d0: 7dd2 acbc 4e8a 19bd e4b1 eabc a9b9 3fbd
000003e0: 8032 f4bd 1da3 953b eca0 553c 84c8 343c
000003f0: 9ce5 92bb b7dc d4bd bfeb d3bc 96f5 543d
-0.054608874 -0.037909746 -0.07995183 -0.1444156 -0.15421155 -0.12020131 -0.07423985 0.0041346415
-0.11887386 0.010482819 0.109377466 0.10427272 0.027188426 0.024859047 -0.05874653 -0.113596335
-0.09721151 0.06853908 0.04466994 0.07198683 -0.048746817 -0.033281516 -0.15882455 -0.16637576
-0.19294395 -0.17176598 -0.27857447 -0.061580073 -0.032218073 -0.1869721 0.01815231 0.042921335
0.09615973 -0.21865286 -0.12047888 -0.055188637 -0.18496433 -0.014930028 0.08524638 0.013095806
-0.098276444 0.0032415478 0.0066682 0.015177569 -0.030348415 -0.031623177 0.013613369 0.026603071
-0.038567964 -0.07884807 -0.028641492 -0.011317704 0.01639087 0.0003653832 0.05629571 0.05456825
-0.045992035 -0.013292798 -0.015274735 -0.15145972 -0.20299575 -0.11922596 0.09382643 -0.022449158
-0.0918626 0.022231922 0.052917156 -0.15052807 -0.09817119 0.052233417 -0.024479521 0.010867111
-0.122455575 -0.6781579 -0.31948572 0.043084357 -0.015195183 -0.0025018463 0.0586292 -0.33493268
0.015852101 0.18691279 0.047629926 -0.049270127 0.03518703 0.076779 0.07506017 0.13459447
0.36442345 0.112257935 0.043481927 -0.04261332 -0.03459329 -0.1532976 -0.12150216 -0.026395781
-0.02608201 -0.029231315 -0.022368582 0.02518614 -0.018076062 -0.052951634 0.07107148 0.045876253
0.01547175 0.02301909 0.029087896 -0.0328448 -0.122807205 -0.2544346 -0.18076359 -0.09305498
-0.058841888 -0.06856316 -0.09727534 -0.15634333 -0.080096304 -0.17238098 -0.05706797 -0.01851964
-0.23904502 -0.25984913 0.018685993 -0.056034364 -0.19545771 -0.10488935 0.021408953 -0.22881906
-0.20729505 -0.24367242 0.25233445 0.21471131 0.0068711746 -0.03799305 0.027000228 -0.013553306
0.38684496 0.13628185 0.08097887 -0.050348304 0.012396446 -0.005234775 0.13460167 0.11004158
-0.011609905 -0.12652735 0.010767966 0.012617524 -0.035830293 -0.039892312 0.00984649 -0.09229298
-0.09385567 -0.012164979 -0.058999375 -0.09859913 -0.06885093 0.057000548 0.2504884 0.09475993
0.042926453 -0.036694106 -0.2856772 -0.31999955 0.21715066 0.13080598 -0.20472339 0.024348462
-0.019874224 -0.3116121 -0.3213425 0.23431775 0.27169144 -0.122722544 -0.04028057 -0.05532046
0.14999336 -0.004955311 0.0713239 -0.053972896 0.0076559978 0.010659693 0.05756668 0.061119933
0.2608793 -0.10832963 -0.12472143 -0.0043040155 0.0293669 0.017509544 0.036396597 -0.026977254
-0.36296466 -0.28129447 -0.042754926 0.0024511013 -0.06256244 -0.024684539 -0.002354334 -0.03565619
-0.016096573 0.0022015679 -0.009129157 -0.041000653 0.02960155 0.04759568 -0.0144158015 -0.095202714
-0.014718346 0.018584725 0.0772915 0.083105505 -0.005270713 -0.10836369 0.036403142 -0.012936044
-0.029682083 0.12787804 0.09031438 -0.120360434 -0.105100006 0.13614936 -0.017672421 -0.06326622
-0.029406592 -0.28604576 -0.30841157 -0.14371736 0.08248705 0.012470238 -0.015683783 -0.08090524
-0.061614405 -0.1004109 -0.08128994 0.10681706 0.06323523 -0.03015854 -0.008394694 0.05850719
0.04847295 -0.03093739 -0.12859136 -0.092134245 -0.021096462 -0.037485413 -0.028649278 -0.04680792
-0.119236946 0.0045665638 0.013038855 0.011034135 -0.004482938 -0.103936605 -0.025869248 0.05199202

fc.bias f4 [10]
00000000: 0d29 a3bc 18ea 063f e552 84bd 0489 afbd
00000010: 0a08 8c3d 3f97 eabd e788 afbd 9a92 853d
00000020: 761d 85be e9f3 f7bd
-0.019917035 0.5270095 -0.064611234 -0.085710555 0.06837471 -0.11454629 -0.08571034 0.06522103
-0.2599904 -0.12107069
